checkpoint/MLP.onnx (onnx, 422 bytes, 1 tensors)

fc1.weight f4 [1, 30]
000000 80 80 a6 3e 01 38 fd bd 6d 44 54 3e 01 ca 4c 3f
       0.32519913 -0.123641975 0.20729227 0.79995733
000010 2f ab 23 bf d5 ad e6 3e 83 71 8c 3f c1 c3 a2 3f
       -0.6393308 0.45054498 1.0972141 1.2715989
000020 04 ad f7 be 6a 81 8b bf 95 b1 76 3f 77 69 4d bf
       -0.48374188 -1.0898869 0.9636472 -0.8023905
000030 c3 da 65 3f 51 62 9b 3f f3 bc 4b bf 51 78 c7 bd
       0.8978693 1.2139379 -0.7958519 -0.097397454
000040 fc 74 0d 3e 7b 8e 0d be 70 ba 85 bf 4c e7 f0 be
       0.13814157 -0.13823883 -1.0447521 -0.47051466
000050 5a be e0 3e 6d b3 3e be ce 9c fc 3e 0d 5c 8b 3f
       0.43895227 -0.18623133 0.49338382 1.0887467
000060 16 d6 f7 be de 4e ce 3e 30 50 46 3f a5 d6 0e 3f
       -0.48405522 0.40294546 0.77466106 0.5579627
000070 f6 1f b1 be d8 4b c4 be
       -0.34594697 -0.38339114
