checkpoint/MLP_quant.onnx (onnx, 1423 bytes, 1 tensors)

fc1.weight_quantized u1 [1, 30]
153 105 140 204 49 167 236 255
66 0 222 31 215 249 32 107
133 103 5 67 165 98 171 236
66 162 202 178 81 77
00000000: 9969 8ccc 31a7 ecff 4200 de1f d7f9 206b
00000010: 8567 0543 a562 abec 42a2 cab2 514d
