checkpoint/MLP_quant_preproc.onnx (onnx, 692 bytes, 1 tensors)

fc1.weight f4 [1, 30]
000000 84 80 a6 3e 05 38 fd bd 6b 44 54 3e 01 ca 4c 3f
       0.32519925 -0.123642005 0.20729224 0.79995733
000010 30 ab 23 bf d2 ad e6 3e 83 71 8c 3f c2 c3 a2 3f
       -0.63933086 0.4505449 1.0972141 1.271599
000020 04 ad f7 be 6a 81 8b bf 96 b1 76 3f 76 69 4d bf
       -0.48374188 -1.0898869 0.96364725 -0.80239046
000030 c5 da 65 3f 4e 62 9b 3f f2 bc 4b bf 4f 78 c7 bd
       0.8978694 1.2139375 -0.7958518 -0.09739744
000040 fc 74 0d 3e 7b 8e 0d be 71 ba 85 bf 4b e7 f0 be
       0.13814157 -0.13823883 -1.0447522 -0.47051463
000050 5b be e0 3e 73 b3 3e be cd 9c fc 3e 0d 5c 8b 3f
       0.4389523 -0.18623142 0.4933838 1.0887467
000060 16 d6 f7 be de 4e ce 3e 2e 50 46 3f a6 d6 0e 3f
       -0.48405522 0.40294546 0.77466094 0.5579628
000070 f6 1f b1 be da 4b c4 be
       -0.34594697 -0.3833912
